…
            "1563/1563 [==============================] - 16s 10ms/step - loss: 0.1698 - accuracy: 0.9401 - lr: 1.0000e-05\n",
            "Epoch 86/100\n",
            "1563/1563 [==============================] - 16s 10ms/step - loss: 0.1740 - accuracy: 0.9394 - lr: 1.0000e-05\n",
            "Epoch 00086: early stopping\n",
            "Model: \"sequential\"\n",
            "_________________________________________________________________\n",
            "Layer (type)                 Output Shape              Param #   \n",
            "=================================================================\n",
            "conv2d (Conv2D)              (None, 32, 32, 64)        4864      \n",
            "_________________________________________________________________\n",
            "max_pooling2d (MaxPooling2D) (None, 15, 15, 64)        0         \n",
            "_________________________________________________________________\n",
            "batch_normalization (BatchNo (None, 15, 15, 64)        256       \n",
            "_________________________________________________________________\n",
            "conv2d_1 (Conv2D)            (None, 15, 15, 64)        102464    \n",
            "_________________________________________________________________\n",
            "average_pooling2d (AveragePo (None, 7, 7, 64)          0         \n",
            "_________________________________________________________________\n",
            "batch_normalization_1 (Batch (None, 7, 7, 64)          256       \n",
            "_________________________________________________________________\n",
            "conv2d_2 (Conv2D)            (None, 7, 7, 64)          102464    \n",
            "_________________________________________________________________\n",
            "average_pooling2d_1 (Average (None, 3, 3, 64)          0         \n",
            "_________________________________________________________________\n",
            "locally_connected2d (Locally (None, 1, 1, 16)          9232      \n",
            "_________________________________________________________________\n",
            "dropout (Dropout)            (None, 1, 1, 16)          0         \n",
            "_________________________________________________________________\n",
            "flatten (Flatten)            (None, 16)                0         \n",
            "_________________________________________________________________\n",
            "dense (Dense)                (None, 10)                170       \n",
            "=================================================================\n",
            "Total params: 219,706\n",
            "Trainable params: 219,450\n",
            "Non-trainable params: 256\n",
            "_________________________________________________________________\n",
            "None\n"
          ],
          "name": "stdout"
        },
        {
          "output_type": "display_data",
…
